ecg_classifier_300hz.tflite (tflite, 401856 bytes, 20 tensors)

arith.constant2 f4 [3]
00000000: 3f49 fc3d 3ec4 24bd 6e17 c5bd
0.12318658 -0.040226214 -0.096236095

arith.constant3 f4 [128]
00000000: 1098 153c efd2 2bbd 755a 463c ae00 ea3d
00000010: 2db1 923d 32bd a13d 5a40 3ebd 1b40 92bd
00000020: aab6 84bd d254 6cbd dfef 233d 1ec2 7e3d
00000030: 6aad 833c 7723 3fbd 97d1 83bd def9 05be
00000040: 6efc 9b3a 7293 0dbd cf85 bc3d fbce b53c
00000050: cf8c 5e3c c7c9 f2bc c0d5 283d ba95 993d
00000060: d448 943d 1962 f43c 51fe 123e 2040 a03d
00000070: 8f9c 39bc cf3f c3bc 7c48 83bd 0043 263c
00000080: 89b8 35bd 826c 423d d10a 85bd 0e87 dfbd
00000090: 8ef1 beb9 3efc 13bb ae14 d8bc bdca efbc
000000a0: f8c4 40bc cd3b 793d 6d15 efbc fe7a ec3d
000000b0: e06e f2bd 849f c73d 1156 223c d5da 893d
000000c0: ccc1 99bb 590b eabc ae90 cc3d b8f8 1a3b
000000d0: e7ce 45bc b2cc 85bd 8462 083d 6ac3 78bd
000000e0: cf21 ce3c aebe a83b 9fa3 8d3c 0122 a13c
000000f0: 0268 a1bd 2a65 28bc bc05 edbc 6155 a1bd
00000100: 84d2 e73d 6b47 adbd 3837 debd ec96 b2bd
00000110: 5f8e 00be 7ff9 093e 8a66 da3d 7145 43bc
00000120: d465 52bd 5dca dc3d 385e aa3c 1d3e cb3d
00000130: aeab a4bd 3a42 b2bb eca6 003b 4402 5ebd
00000140: be56 c3bd b817 3c3d 9438 f0bb 1d6f 1bbd
00000150: 6f05 473d c2be 2cbd 9431 36bd c625 b53d
00000160: 07ae 06be 8eb7 40bd 02fd 84bd f5bd a6bd
00000170: e93c 80ba 61de d4bd a238 14bc 4e08 743d
00000180: ee97 4f3d 4a90 413d 7d75 43bd f643 95bc
00000190: 5c42 5b3b a3dc 173d 0f16 16bd 1012 073e
000001a0: 357e 9ebd 2f31 98bc 2bfe 8fbc 9bbf 81bd
000001b0: 18ec 8b3c 07a9 43bd dcb0 ef3d e52f 833d
000001c0: 84cf 473b e1e6 523c 8945 84bd ff74 bfbd
000001d0: 0334 46ba 2a19 393d c7da dcbd 146c 883a
000001e0: cb3a 53ba caf3 e03c 263e f4bd 696c e33d
000001f0: fc3c 85bd be1c 553d 63b0 aabc c53f 5dbd
0.009130493 -0.04194921 0.012106528 0.11425911 0.071627 0.07897414 -0.04644809 -0.071411334
-0.06480153 -0.05769808 0.04002368 0.062196843 0.016073901 -0.04666468 -0.064364605 -0.13083598
0.0011900791 -0.034564443 0.092052095 0.022193423 0.013583376 -0.02963723 0.041219473 0.07499261
0.07240453 0.029831933 0.14354827 0.07824731 -0.01132883 -0.023834137 -0.0641031 0.01014781
-0.04436544 0.047466762 -0.06496204 -0.109144315 -0.00036419596 -0.0022580768 -0.026377048 -0.029271478
-0.011765711 0.060848046 -0.029185021 0.115468964 -0.11837554 0.09747222 0.009908215 0.06731192
-0.004692292 -0.028569864 0.09988533 0.0023646783 -0.012073255 -0.06533183 0.033297077 -0.060733236
0.025162606 0.005149684 0.017289935 0.019669535 -0.07881166 -0.010278026 -0.028933398 -0.07877613
0.113194495 -0.084608875 -0.10850376 -0.08720192 -0.1255431 0.13474081 0.10664089 -0.011918412
-0.051366642 0.10780785 0.02079688 0.099239565 -0.08040558 -0.0054400237 0.0019630743 -0.05420138
-0.09538029 0.045921057 -0.0073309634 -0.037947763 0.048589166 -0.04217411 -0.044480875 0.08845095
-0.13152324 -0.04705005 -0.0649357 -0.081417 -0.0009783778 -0.10393978 -0.009046705 0.059578232
0.050682 0.047256745 -0.047719467 -0.018220883 0.0033456301 0.03707565 -0.03664213 0.13190484
-0.07738916 -0.01857814 -0.017577251 -0.06335374 0.017080352 -0.04776862 0.11703655 0.064056195
0.003048868 0.012872429 -0.06458575 -0.09348487 -0.0007560851 0.045190014 -0.10783916 0.0010408186
-0.0008057772 0.027459998 -0.119259164 0.11104662 -0.065057725 0.052029364 -0.02083606 -0.054015893

arith.constant4 f4 [128]
00000000: 4f45 dc3f 4474 c93e 4ed2 b23f ee4a d53e
00000010: 3dc5 263f 9719 4a3f 3a6f ac3f 816b 2f3f
00000020: cf08 eb3e e93b 833f 49d7 963f 0ae1 983f
00000030: a9a4 973e ceca d33e f3b3 803f cc7e 6e3e
00000040: 3d16 433f 855e ad3e aced 273f 9d48 9e3f
00000050: d24b b43e 7eea 783f 2844 b73e dfeb 893f
00000060: accd c23e 1107 293f 1325 043f d610 913f
00000070: 66d6 1c3f 52e3 d73e cd54 b93e 16dc 903f
00000080: 9a84 023f 200b 063f 598d 833f ec24 cd3e
00000090: b40c a93e acae ae3e 9113 8b3f 0616 9f3f
000000a0: daff 523f 9fa1 863e a6d0 bd3f 2816 303f
000000b0: 534c 853f 3aff ce3e c647 973f fa7c 003f
000000c0: dd84 8e3f 433e 863f 5306 733f e695 a13f
000000d0: 2bf8 403f 268d 573f bd14 903f 6be4 9e3f
000000e0: 2d90 f23e 1bd4 8e3f 759b 893f 105e 913f
000000f0: a6ca 533f 0ffa 8f3f 2381 1f3f 5686 6c3e
00000100: 1315 893f 2cd7 b43f f775 5e3e fa4d e43e
00000110: e874 c63f 8cdd b83e 3283 593f 3941 9f3e
00000120: 2735 163f a2ab c13f 25cd 553f a15f d23f
00000130: a988 1c3f 979a 2c3f 3890 ee3e 1f74 8b3e
00000140: 7e4d 943e e4fd c23e 91eb 3f3f 2f9d c33e
00000150: 102a c43e c05a 3f3f 4b1d fe3e 4b8a ae3f
00000160: e357 493f ca70 003f c882 a83e 1c88 fd3e
00000170: 3307 b53f 027f 973f 0ff6 273f 65b3 b63f
00000180: d128 913f 706c 6d3f ce99 ca3e 2f48 ca3f
00000190: d7b0 8c3e 37ab 853e 0dea 943e 5b4d 033f
000001a0: 85cc c93e f926 993f 35ea 7f3e b505 913f
000001b0: d6a3 3c3f 8044 983f e9ce f63e c148 a33e
000001c0: 03e0 e33e 8f6f 5f3f 018d 1e3f da8b b43e
000001d0: f062 eb3e 1fde 973f 93c5 093f 2455 fc3e
000001e0: d27e 883f 073e b33f dd00 963f ea94 b13e
000001f0: ee3d 773f ef9f 663f 2958 003f a653 423f
1.7208651 0.39346516 1.397043 0.4165873 0.6514471 0.78945297 1.3471444 0.6852341
0.45905158 1.0252658 1.178445 1.1943676 0.29617813 0.41365665 1.0054916 0.23290557
0.7620581 0.33861175 0.65597034 1.236591 0.35214096 0.97232807 0.35794187 1.0775107
0.3804754 0.6602641 0.5161907 1.1333263 0.61264646 0.4216562 0.3619751 1.1317165
0.50983584 0.52360725 1.0277511 0.40067232 0.33017504 0.3411764 1.0865346 1.2428596
0.8242165 0.26295182 1.48293 0.6878381 1.0413917 0.40429097 1.1818779 0.501907
1.1134297 1.0487751 0.94931525 1.262387 0.75378674 0.8419975 1.1256329 1.2413458
0.47375622 1.115848 1.0750567 1.1356831 0.8273109 1.1248187 0.6230642 0.2309812
1.0709556 1.4128165 0.21724688 0.4459074 1.5504427 0.36106527 0.84965813 0.31104448
0.58674854 1.5130503 0.8351615 1.6435434 0.61146027 0.67423385 0.46594405 0.2723703
0.28965372 0.38084328 0.7496882 0.3820586 0.3831334 0.7474785 0.49631724 1.3635954
0.7864973 0.501721 0.32912278 0.49517906 1.4142822 1.1835635 0.6560983 1.4273497
1.1340581 0.9274359 0.3957047 1.5803279 0.27478668 0.2610719 0.29084817 0.5128991
0.3941385 1.1965019 0.24991687 1.1329867 0.73687494 1.1895905 0.48204735 0.31891444
0.44506845 0.872796 0.61933905 0.35262948 0.4597392 1.1864661 0.538171 0.49283707
1.0663702 1.4003304 1.1719013 0.34683925 0.9657887 0.9008779 0.5013452 0.7590889

arith.constant5 f4 [128]
00000000: fa8a 6abf 5576 22be 88fa 3bbf 899d 6ebe
00000010: d0f9 63be 7c87 e4be 5799 54bf 7eb9 c7be
00000020: 91e8 a6be e35e 35bf 60dd 54bf 7351 25bf
00000030: 19d1 28be 368c a4be 0e60 0cbf 8a18 50be
00000040: 7c13 71be c678 2dbe e5e1 a7be 3230 75bf
00000050: 2bdc 16be 929a 0cbf 8dd6 66be de05 68bf
00000060: dd3c 2dbe 28b9 73be fc48 37be 5d73 a8be
00000070: c8de 9abe d478 9ebe 833b 12be 1e8a 13bf
00000080: 8d46 83be 5c4d 81be c8af 38bf 249e 98be
00000090: 444d 05be cdf9 c5be dd01 34bf 2614 4fbf
000000a0: 8374 0bbf ec31 72be 20f9 3abf 30e2 b5be
000000b0: cfb5 20bf e291 aebe 9855 bdbe 6493 d6be
000000c0: 8cfa 44bf 1195 e3be 8d0a 16bf a4c4 83bf
000000d0: 60af 0cbf 85ab 32bf 860e 1ebf ffc1 55bf
000000e0: e64b 9cbe 7ff7 f7be 7f37 2fbf fc7a 1cbf
000000f0: ce23 e1be 3158 1dbf 6e01 8ebe 315c 08be
00000100: 9729 69bf 5074 59bf 6ca7 33be 8130 70be
00000110: 1d7a 4ebf aa0f 86be 54eb f2be f127 19be
00000120: 1c0d 5bbe 921d 54bf cf6f eebe 8d1e 7fbf
00000130: b01b bdbe 6c9f debe 9d8f 99be 50ca c8be
00000140: 8e85 8bbe 7804 1fbe e83b f6be 0883 30be
00000150: 3df8 68be 4cf3 afbe 3860 84be fac1 4ebf
00000160: e94e ffbe 88f5 92be 31fa 6ebe 8e8d bbbe
00000170: 1620 16bf 7ac7 31bf 33a5 01bf 6407 48bf
00000180: 5e45 40bf ad63 49bf 3340 73be ee58 28bf
00000190: 3d82 15be f26f 16be 9ace 48be 8bec 59be
000001a0: 42b0 45be 3cf1 67bf 1cc5 74be 743c 26bf
000001b0: 9a56 bbbe 1b8b 69bf 2a48 cabe f88c 40be
000001c0: 946d cbbe b2f3 0cbf e67c dabe 111c 5ebe
000001d0: 3ee6 dbbe 765a 54bf 7103 a5be 40fa b5be
000001e0: c374 48bf c23a 46bf 96eb 27bf ac76 53be
000001f0: 40ba 28bf 096a 1abf 5843 adbe abff 26bf
-0.9161831 -0.15865453 -0.73429155 -0.23302282 -0.22263265 -0.44634616 -0.8304648 -0.39008707
-0.3259931 -0.7084791 -0.8315029 -0.64577407 -0.16486014 -0.32138222 -0.5483407 -0.20321861
-0.23542589 -0.16940603 -0.3278953 -0.95776665 -0.14732425 -0.54923356 -0.22542782 -0.9063395
-0.16917749 -0.238011 -0.17898935 -0.32900515 -0.30248094 -0.3095156 -0.14280514 -0.57632625
-0.25639763 -0.25254333 -0.7214322 -0.29808152 -0.13017756 -0.38667145 -0.70315343 -0.8089012
-0.5447466 -0.23651856 -0.73036385 -0.3552413 -0.6277742 -0.34095675 -0.36979365 -0.41909325
-0.76944804 -0.44449666 -0.5860985 -1.0294385 -0.549551 -0.6979297 -0.6174091 -0.8349914
-0.30526656 -0.48431012 -0.68444055 -0.6112516 -0.4397263 -0.61462694 -0.27735466 -0.13316418
-0.91079086 -0.84943104 -0.17544335 -0.23456003 -0.8065508 -0.26183826 -0.47445166 -0.14956643
-0.2139172 -0.8285762 -0.46569678 -0.9965599 -0.36935186 -0.43481004 -0.2999238 -0.39216852
-0.27250332 -0.15529048 -0.4809258 -0.17237484 -0.22750945 -0.34365308 -0.2585466 -0.80764735
-0.4986489 -0.2870295 -0.23337628 -0.36631435 -0.5864271 -0.69445 -0.506427 -0.7813628
-0.75105846 -0.7866772 -0.23754959 -0.65760696 -0.14600463 -0.14691141 -0.19610062 -0.2128164
-0.19305518 -0.9060247 -0.23903316 -0.64935994 -0.3658951 -0.91227883 -0.39508182 -0.18803775
-0.3973204 -0.5505935 -0.42673415 -0.21690394 -0.42949098 -0.8295053 -0.32229188 -0.35542488
-0.78303164 -0.7743341 -0.6559385 -0.20650738 -0.65909195 -0.60318047 -0.33840442 -0.6523387

arith.constant6 f4 [64]
00000000: 1c45 4141 a125 7b41 21e9 b441 26cf 8241
00000010: 39e5 4140 a825 3440 53f3 1a41 85fe 1341
00000020: c8cf 0441 3a7a 4640 b2ef 4341 696c 2541
00000030: d015 e040 bdb6 5c40 6ad9 8841 8136 da40
00000040: 577f 4541 ea9d 2941 1d1d 3241 1edf b541
00000050: bed9 3541 51bd 6c41 00f6 3941 bfe5 e840
00000060: 3130 2c40 79ed b040 4dda 3541 7720 2440
00000070: b9b7 2141 40ec 7441 9e0f a541 0aae 4241
00000080: 359c 0e41 00e2 1e41 1826 1741 9026 2441
00000090: 6b61 4341 f8db 5141 1832 cc40 1535 3141
000000a0: 7e89 8341 7927 3141 2ff0 8c40 723f 3641
000000b0: 61cf 0441 ac3f 1d41 1cc2 3d41 5633 3441
000000c0: 721f 8041 4499 8140 0eb2 9e41 9f01 2141
000000d0: 9d37 7f40 0cc2 8840 8dd3 8041 e678 1741
000000e0: f612 4141 35f3 0e41 bf3a b340 c7d1 d940
000000f0: 8c82 4541 2248 3a41 c7d2 3b41 b8ef 5241
12.079372 15.696687 22.613832 16.351147 3.0296156 2.8147984 9.684405 9.249639
8.300728 3.10121 12.246019 10.338967 7.0026627 3.4486535 17.10616 6.8191533
12.343589 10.601053 11.132108 22.733944 11.36566 14.79622 11.622559 7.278045
2.6904414 5.5289884 11.365796 2.5644815 10.107354 15.307678 20.632626 12.16749
8.9131365 9.930176 9.4468 10.259415 12.211284 13.116203 6.381115 11.0754595
16.442135 11.072137 4.4043193 11.39049 8.30063 9.828045 11.85989 11.262533
16.015354 4.049959 19.83694 10.062896 3.9877694 4.2736874 16.103296 9.467016
12.067129 8.934377 5.600921 6.8068576 12.344372 11.642611 11.738959 13.183525

arith.constant7 f4 [64]
00000000: 578f a2be fad7 00be 64c5 82bd d1b2 f1bd
00000010: 2e62 dfbe e7c9 b0be 4767 05bf 0e48 11bf
00000020: 8a8d 2ebf e485 81be ee09 cfbd 70d8 dbbe
00000030: 6a6b 8cbe fa7d d6be ecc6 f0bd d9b9 0bbf
00000040: 861f edbe 6055 d9bd 58d9 24bf d922 0dbd
00000050: 3428 31be 88d5 2abf 472b 3fbe d992 81be
00000060: 8590 ccbe b8e0 e4be decb abbe deb4 31be
00000070: 2634 acbd 4b69 11bf 677e 84bf 3e0e efbe
00000080: 965e 72be e760 a0bf 8e8d 58be 24bd 46be
00000090: 8ce2 07bf 7cdc 2fbe f4ff 8cbe 4002 43bf
000000a0: 3cab 1dbf 75f0 11bf bed0 a0be 4c3a 03bf
000000b0: e76d 31bf c916 35bf b202 27bf 8a2c d3be
000000c0: ee65 74be ed6f d8be 0907 d0bd 334e a3be
000000d0: 8a3a 8abe 019f 6fbe 0767 67bf 77c2 ccbe
000000e0: 92cd c0be 2294 03bf 5890 eabe ad66 65bf
000000f0: ac51 00bf 36a0 18bf 743c b8be 2a97 e0be
-0.31749985 -0.12582389 -0.063853055 -0.11801685 -0.43629593 -0.3452904 -0.52110714 -0.5675057
-0.6818472 -0.25297463 -0.10109316 -0.42938566 -0.274257 -0.41892987 -0.11756691 -0.54580456
-0.46313113 -0.10611987 -0.6439414 -0.03445706 -0.17300493 -0.6673207 -0.18668853 -0.25307348
-0.3995401 -0.44702697 -0.33553976 -0.17354152 -0.08408384 -0.5680129 -1.0351075 -0.46690553
-0.23668894 -1.2529572 -0.21147749 -0.19408089 -0.5308006 -0.17173952 -0.27539027 -0.7617531
-0.6158941 -0.57007533 -0.31409258 -0.5126083 -0.6930832 -0.7073789 -0.6523849 -0.41244918
-0.23867008 -0.42272893 -0.10157592 -0.318956 -0.26997787 -0.23400499 -0.9039158 -0.39992115
-0.37656838 -0.5139791 -0.4581325 -0.89609796 -0.5012462 -0.5961946 -0.35983622 -0.4386533

arith.constant8 f4 [256]
00000000: 5f01 ad3e 8e59 b23e eaeb 863f d418 843e
00000010: 028b ca3e caec a43e e3ca 9c3f f64b af3e
00000020: ef8b 903e f831 553e f0bb 463f 36ff a03e
00000030: 4fc5 8b3e b27d 1e3f 2055 e83f 3977 f13e
00000040: 2c58 5b3f 3700 493f 3074 233f 7e00 093f
00000050: 2bb9 fd3e d995 c23e d538 693f 8d56 673f
00000060: 01a8 a53e e467 6b3f f16a b23e c814 ba3e
00000070: 1db6 5e3f 51a3 c93e c9e5 063f 83e0 963e
00000080: 6e72 703f 6e9e 123f c175 a13e 46c5 ae3e
00000090: d910 d23e 4e27 d63e 0cb1 753f e4dc bd3e
000000a0: c3e4 f23e 4d6a 633f e846 d43e b53f 2f3f
000000b0: 2f8b 0d3f 66ff ed3e c129 c93e bb7f fa3e
000000c0: 43b1 553f c6c8 0f3f 05a2 3b3f 6e03 363f
000000d0: d94f dd3f b1dd 943e 2664 893e b463 273f
000000e0: e3f0 463f 41dc 573f 2964 d43e f10a 403f
000000f0: 13cb a43f 9af5 c33f b089 173f 2804 1c3f
00000100: 19c8 fa3e e3c3 d73e 7af7 143f 6d2c 813f
00000110: 131a e23e 29a9 023f 8f01 813f ecca 353f
00000120: df17 ea3e e47e 323f 2782 0a3f 387c 9d3e
00000130: 6c35 b13e 2b4d ce3f 6722 ad3e 26ff 453f
00000140: d6d6 d23e 4a6b 863e 220b 453f 64d9 e83e
00000150: f791 e33e 9e20 283f 6efd 1f3f 7a1f ab3e
00000160: 4fcf 623f 9faf c93e 1d5f a93e ec6c 7e3f
00000170: 12bd a23f 0bd2 323f 3b80 003f 49ea 0a3f
00000180: 6517 d33e cd26 8f3f ce19 8d3e 2f29 643e
00000190: 2785 1c3f 6a59 613f 6504 df3e dba4 873e
000001a0: bdf4 a23e 0e66 aa3e 2933 ab3f 670f 3f3f
000001b0: fe05 103f af60 b23e d9ad 2c3f f63a 803f
000001c0: 2fd2 853f 4703 8b3f 4756 c43e 0449 303f
000001d0: 888c 923e 5b9d cd3f 2c79 133f 074e ff3e
000001e0: e5be a43f 2bc9 a23e a09c 0a3f 8acc bc3e
000001f0: 6faf 873f 279f 073f 5907 9d3f 23b9 8b3f
00000200: a069 f13e bdf2 d13e 7689 b03e b833 f13e
00000210: 5e86 403f 771d 5f3f 57d0 f93e 67c6 f23e
00000220: 13c9 d23e 1313 273f 2286 693f 7fb0 043f
00000230: d6fd 293f 5b36 8a3f b23a 123f c10a 9e3f
00000240: aac2 ef3e 2d12 a73e dfea 983e 03ad b73e
00000250: 3555 373f be7c b13e 8485 053f 5c5c 213f
00000260: abbf 4e3f 57bf 503f 6424 a13e ceb5 bc3e
00000270: 4324 833e 2998 3b3f b2ac 013f da34 dd3f
00000280: ac30 383f 3bad b93e 3bc9 853f 1c1e a83e
00000290: 8b57 db3e f085 0a3f 9590 423f 74dd e23e
000002a0: 0c85 413f 041b 3d3f a6b8 473f a15d 283f
000002b0: 5796 b13e e470 1e3f 2c19 433f 85d6 dc3e
000002c0: 8c41 e03e 574c 0640 bdcc 853f eb25 753f
000002d0: 97f6 873e 31dd 903e 3769 a13e 2b76 e23e
000002e0: e53b cb3e 23aa 373f 30b7 213f f8a5 b93e
000002f0: 74bd fd3e 3377 5b3f 10be b63f 7b9b 303f
00000300: 63ee bf3e a7e1 533f 24f5 a73e 40b3 5a3f
00000310: fd7f f23e 8888 bb3e e387 573f bbc7 093f
00000320: 6ea4 d53e 7c78 fb3f 747c 013f 6ef6 f83e
00000330: 3b50 1240 68ac b43e eddf 5b3f d2af 7f3f
00000340: 0a54 293f 3000 1f40 e047 633f d37a b53e
00000350: 0dba c73e 21e0 423f f056 a93e 46da d13e
00000360: 4f7d f73e 8dc7 573f 91a0 cf3e be84 133f
00000370: d36d a83e 170d 0d3f d938 543f 8de7 9d3e
00000380: d5c5 013f 5133 053f 55bb 0f3f e514 9c3f
00000390: 50ff d53e 96cc 873f 80e9 1b3f 76fe 8a3f
000003a0: 2cc4 bf3f c652 d03e 4011 293f ecde 7c3f
000003b0: 6b01 283f 01c9 103f de34 613f 3765 3f3f
000003c0: f7fd cb3e 28a6 3f3f 0594 763e 6924 e93e
000003d0: eade 663f bb49 e43e 247c 643e e64f b03e
000003e0: 3bc8 073f 597e 2a3f a4d4 203f 5a68 283f
000003f0: 735f 873e af5d aa3e 8f24 db3e 6ca1 473f
0.3379011 0.3483395 1.0540745 0.25800192 0.3955918 0.32211906 1.2249416 0.3423764
0.2823176 0.20819843 0.7763052 0.3144471 0.27298972 0.61910546 1.8150978 0.47161272
0.85681415 0.7851595 0.63849163 0.53516376 0.49555334 0.3800495 0.91102344 0.9036644
0.3235474 0.919554 0.34847215 0.3634398 0.8699663 0.39382413 0.52694374 0.29468164
0.93924606 0.57272995 0.31535152 0.34134883 0.4102848 0.41826862 0.9597328 0.3708259
0.47440156 0.8883408 0.41460347 0.68456584 0.552905 0.46483916 0.39289668 0.48925576
0.83473605 0.5616573 0.732941 0.71098983 1.7289993 0.29075387 0.2683422 0.6538651
0.77711314 0.84320456 0.41482666 0.75016695 1.2874473 1.5309327 0.5919447 0.6094384
0.48980787 0.42141637 0.5819012 1.0091683 0.44160518 0.5103937 1.0078601 0.7101276
0.45721337 0.6972487 0.54104847 0.30758834 0.3461107 1.61173 0.3381531 0.7734245
0.41179532 0.2625373 0.7697011 0.45478356 0.444473 0.6567477 0.6249608 0.33422452
0.8859758 0.393918 0.33080378 0.9938495 1.271395 0.6985175 0.50195664 0.5426374
0.41228786 1.1183716 0.2755875 0.22281335 0.61140674 0.8802706 0.4355804 0.26492962
0.31827345 0.33280987 1.3374988 0.7463288 0.56259143 0.3483939 0.6745277 1.0017993
1.0454768 1.0860375 0.38347074 0.68861413 0.28622842 1.6063646 0.5760677 0.49864218
1.2870756 0.31794104 0.5414524 0.368748 1.0600413 0.5297722 1.2267867 1.0915874
0.47150898 0.41005507 0.34479874 0.4710977 0.7520503 0.87154335 0.48791763 0.47416994
0.41169032 0.6526348 0.91220295 0.5183181 0.6640295 1.0797838 0.5712081 1.2347032
0.46828204 0.32631055 0.29866692 0.35874185 0.7161439 0.34665483 0.52156854 0.63031554
0.8076121 0.8154196 0.31473076 0.36857456 0.25613603 0.7327905 0.5065414 1.7281754
0.7194927 0.36264977 1.0452036 0.32835472 0.42840227 0.5411062 0.76001865 0.4430958
0.7559364 0.7386935 0.78016126 0.65767866 0.34685013 0.6189101 0.76210284 0.43132415
0.43800008 2.0984094 1.0453106 0.95760983 0.2655532 0.28293756 0.31525585 0.4423078
0.39694133 0.71743983 0.63170147 0.36259437 0.49558604 0.8572876 1.4276752 0.68987244
0.37486562 0.82766193 0.32804215 0.85429764 0.47363272 0.36627603 0.8419172 0.5382039
0.41727012 1.9646144 0.50580525 0.4862551 2.2861469 0.35287786 0.8588856 0.99877656
0.6614386 2.4843864 0.8878155 0.3544527 0.39009133 0.76123244 0.3307414 0.40986842
0.4833779 0.84288865 0.4055219 0.57624424 0.3289629 0.550981 0.8289924 0.30840722
0.5069249 0.5203143 0.5614522 1.2193877 0.4179635 1.060931 0.6090317 1.0858905
1.4981742 0.4068815 0.66041946 0.9877765 0.65627164 0.5655671 0.87971294 0.74763817
0.39842197 0.7486291 0.24079902 0.4553559 0.9018389 0.44587502 0.22312981 0.34435958
0.530399 0.6659904 0.62824464 0.6578423 0.2644001 0.332746 0.4280133 0.77980685

arith.constant9 f4 [256]
00000000: 822f 87be 8030 9fbe f060 c0be 7075 8cbe
00000010: 8a3a d2be 412b d7be 543e f0be 9167 2cbf
00000020: 541d f0be 66d6 80be ff7b ecbe e4a6 03be
00000030: f239 d8be 3bba e2be 55b7 4abe 1dbc 05bf
00000040: 63a1 a8be f041 b5be 63a5 f8be 1b39 0fbf
00000050: 7dba aebe b704 04bf 19e3 bcbe c939 d7be
00000060: 7a78 aebe cad0 b6be 72ce f0be da03 f3be
00000070: cf61 eebe 6810 04bf a510 9abe 6a51 a6be
00000080: 82a0 08be f617 99be a7a7 cebe c4db 81be
00000090: 531e b9be 48cf 8cbe 0793 d8be 33d6 eabe
000000a0: 0100 9fbe 7dc7 d6be 8544 cfbe 7c48 e2be
000000b0: 9c86 27bf 3b30 4bbe c863 ecbe 9ed3 0abf
000000c0: c018 c1be f8c7 7ebe efbc e3be 90ab dcbe
000000d0: 54e0 23be 5de3 ccbe a06b a6be 70f2 bbbe
000000e0: bc00 babe 849b a6be 1dc6 0ebf 61d7 cebe
000000f0: 85e4 4bbe c941 92be f727 91be ba7c c7be
00000100: e805 83be cbf1 a2be 828e 98be 56dd f8be
00000110: f41e b0be e914 0ebf b6e6 b8be fc8d 05bf
00000120: a9e1 a9be 441b e1be e86e 0fbf a336 c8be
00000130: f980 5ebe 08ca 24be 9919 a0be ddbf debe
00000140: da77 97be 82ec 65be 04d4 e9be ca74 a9be
00000150: 3699 ffbe 7740 edbe eaaf 0dbf 6233 30be
00000160: 70a5 50be a089 18bf 96a9 e5be 667e 98be
00000170: 40f9 e3be 503a 9fbe 043d 49be 91c8 e5be
00000180: 5137 23bf eaa6 72be 16fd aebe 66bf 95be
00000190: e4cc 61be 33b5 99be c6d1 b1be 1fc0 0dbf
000001a0: 1f79 b8be f99d a9be be9d e0be 400e f9be
000001b0: 5c23 d1be ed17 bdbe 02e8 f9be 9728 9fbe
000001c0: 263c 9ebe 3072 9fbe deaf edbe 51e7 0ebf
000001d0: ef09 6fbe 7ccb 89be 2c5f 8abe 1072 02bf
000001e0: 9ac5 acbe 5b10 e2be 47eb c6be d721 9fbe
000001f0: b833 7ebe c502 c5be 4960 abbe e6c4 b0bd
00000200: 1f42 c8be 6222 91be 0504 83be 968e e1be
00000210: e76c eebe ecdd eabe 0830 46be ea64 e2be
00000220: 0e2a 89be cb26 cdbe a150 fabe 7718 b5be
00000230: e300 23bf d873 78be 6a5d a4be 8d95 80be
00000240: 05e9 91be cc0c 2cbf f1b1 a4be 59be 79be
00000250: 15f2 febe 8957 92be 7ef8 93be 3e02 99be
00000260: 6f61 26bf eefd dabe 91c4 eebe f8b4 20bf
00000270: 2628 95be a0a4 f9be 38cc c3be 7250 96be
00000280: a8ac 9dbe f41e 8bbe ec04 92be 31fd b7be
00000290: 4e6e f6be e2f2 bbbe dd8a d7be 2a30 04bf
000002a0: 8a34 06bf 0a56 f1be 0f9f 87be 0b1e 16bf
000002b0: 1655 9fbe c312 7cbe 414e 5abe 2376 07bf
000002c0: 229a fcbe 2aeb 89be 4ffd d2be dab5 9ebe
000002d0: 9419 79be d8fe 97be 6fe2 b5be 8dd9 a5be
000002e0: cfdd bdbe 6c78 7dbe 9bbc 07bf 2dad 89be
000002f0: 9000 debe 3e43 c9be 1771 5abe a14c f7be
00000300: c98b d6be eea1 c8be 9c84 95be ef27 2dbf
00000310: 417c edbe 3043 dabe ced7 d5be d7c2 fdbe
00000320: 4a95 d7be daa7 78be a857 dabe 8ebd aebe
00000330: 6fc0 aebe 52b9 28bf 5553 0ebf 5b55 c0be
00000340: 99d2 bfbe c3d4 11be 6472 f3be 0833 00bf
00000350: 9b18 04bf e0bb 95be bd07 00bf 22a9 8dbe
00000360: b5de d4be 7da1 d2be c63e c8be 407f cdbe
00000370: 551f b3be ebbe bcbe 2845 acbe 054a c7be
00000380: 1217 67be 0657 92be 5461 bbbe 8eae c6be
00000390: 0eb9 09bf be44 8bbe b298 10bf 8bdf b0be
000003a0: 7774 4dbe 9352 0cbf b88a 55be bf1d efbe
000003b0: 20d2 c2be 7848 e2be c8bf a8be 1411 8cbe
000003c0: a9a3 34bf 201e fdbe 05ac 0abf b62b cebe
000003d0: 4e99 05bf f06d adbe 645e d6be ae50 05bf
000003e0: 64af e1be e1dc 11bf 7a74 9dbe 4ed7 c1be
000003f0: b231 18be ec43 8abe 6025 3dbe 5f21 eebe
-0.26403433 -0.3109169 -0.37573957 -0.27433348 -0.41060287 -0.42025188 -0.46922553 -0.6734553
-0.46897376 -0.25163573 -0.46188352 -0.12856632 -0.4223171 -0.44282708 -0.19796498 -0.52240163
-0.32935628 -0.3540187 -0.4856368 -0.5594651 -0.34126654 -0.51569694 -0.36892012 -0.42036274
-0.3407629 -0.35706168 -0.47032505 -0.47463876 -0.46558997 -0.51587534 -0.30090824 -0.3248399
-0.13342479 -0.29901093 -0.40362284 -0.2536298 -0.36155948 -0.27501893 -0.42299673 -0.45866546
-0.3105469 -0.41949072 -0.40481964 -0.44195926 -0.6543977 -0.19842617 -0.46169877 -0.5422915
-0.37714195 -0.2488097 -0.44480082 -0.43099642 -0.16003543 -0.40017214 -0.32503986 -0.36708403
-0.36328685 -0.32540524 -0.55771047 -0.40398696 -0.19911392 -0.28565815 -0.28350803 -0.38962346
-0.25590444 -0.31825098 -0.29796225 -0.48606366 -0.34398615 -0.55500656 -0.36113518 -0.52169776
-0.33179978 -0.43966115 -0.56028605 -0.39104185 -0.21728887 -0.16092694 -0.3126953 -0.43505755
-0.29583627 -0.22453502 -0.45669568 -0.33096915 -0.49921578 -0.46338245 -0.5534655 -0.17207101
-0.2037561 -0.59585 -0.44855946 -0.29783934 -0.445261 -0.31099176 -0.19652182 -0.44879583
-0.6375628 -0.23696485 -0.34177464 -0.29247588 -0.22050816 -0.30021057 -0.34730357 -0.5537128
-0.36029908 -0.33128336 -0.43870348 -0.48643684 -0.4084729 -0.36932316 -0.4880982 -0.31085655
-0.30905265 -0.31141806 -0.4642324 -0.5582171 -0.23343633 -0.2691306 -0.27025735 -0.50955296
-0.33744508 -0.44153103 -0.38851377 -0.31080505 -0.24824417 -0.38478675 -0.33471897 -0.086313054
-0.39112946 -0.28346545 -0.25589004 -0.44054097 -0.4656746 -0.45872438 -0.1935426 -0.44217616
-0.26789898 -0.4006866 -0.4888964 -0.35370228 -0.6367323 -0.24262941 -0.3210252 -0.25114098
-0.28498092 -0.67207026 -0.3216701 -0.24389018 -0.4979407 -0.2858241 -0.28900522 -0.29884523
-0.6499242 -0.42771858 -0.46634343 -0.62776136 -0.29132193 -0.4875841 -0.38241744 -0.2935825
-0.3079579 -0.27172053 -0.2851938 -0.35935357 -0.4813103 -0.36708742 -0.42098132 -0.5163599
-0.5242392 -0.47135955 -0.2648854 -0.5863959 -0.31119603 -0.24616532 -0.21318914 -0.5291464
-0.49336344 -0.26937228 -0.41208884 -0.30998117 -0.24326164 -0.29686618 -0.35524318 -0.3239254
-0.3708329 -0.24752969 -0.53022164 -0.26889935 -0.43359804 -0.39309114 -0.21332203 -0.4830065
-0.41903523 -0.39186043 -0.29202735 -0.6763906 -0.4638386 -0.42629385 -0.41766208 -0.49562714
-0.42106086 -0.2428278 -0.42645 -0.34128994 -0.3413119 -0.65907776 -0.55595905 -0.3756512
-0.3746536 -0.14241318 -0.4754821 -0.5007787 -0.51600045 -0.292449 -0.5001181 -0.276681
-0.41576162 -0.4113883 -0.39110392 -0.40136147 -0.34984842 -0.3686441 -0.33646512 -0.3892366
-0.22567394 -0.2858202 -0.36597693 -0.3880505 -0.53797996 -0.27200884 -0.56482995 -0.3454555
-0.20063959 -0.548135 -0.20853698 -0.46702382 -0.38050938 -0.44195914 -0.32958817 -0.2735678
-0.70562226 -0.49437046 -0.5416873 -0.40267724 -0.5218705 -0.33872938 -0.4186889 -0.5207623
-0.44079125 -0.5697766 -0.30752927 -0.37859577 -0.14862707 -0.27004945 -0.18471289 -0.46509835

arith.constant10 f4 [256]
00000000: b1f7 d73f 9a31 433e c1d4 803e 571e a43e
00000010: d178 dd3e d7d0 043f 5c5e 943e 92c2 a63e
00000020: 4832 483e 5b3d e63f 1eff 503e e6bc bc3e
00000030: feae 623e 0083 c13f 41f7 da3e 77f8 223f
00000040: 0f53 6f3f e899 a13f 65be 5740 4ac1 953e
00000050: 7119 5a3f adc2 5e3f 7d2c c33e 9bd2 4f3e
00000060: ddf9 2e40 d2ef ea3e e06c c13f ad12 443f
00000070: 1489 503e a8d5 433e bcb9 183f 6321 983e
00000080: c525 3d3f 22ee c73e f649 003f 1763 6a3e
00000090: 4311 cf3e 2ba2 363e 3227 083f 9dc0 7d3e
000000a0: 63bc a83e 9094 373e 49b4 213f a6f1 5a3f
000000b0: a806 e63e 2f4d 863f d22d 063f 9b45 cb3e
000000c0: ef8a 103f 3aef aa3e bcb9 ad3f 7d1d bf3e
000000d0: 6d54 373f 5093 513e 147f d53e c2bd 753f
000000e0: 470f 263f e9b8 d33f 8488 9a3e b541 513f
000000f0: 3ee6 c03e 03a2 df3f 3f95 f43e f1aa 563e
00000100: 7dbf c93f 98d7 843e 27c9 e03f 88be 3a3f
00000110: 0fa6 dd3e 9e80 9b3e d796 be3f f435 443e
00000120: ee1f ee3e e3e0 5a3e 8177 d63e 5cfe 643f
00000130: d8e7 163f 3806 6c3f 6abe cf3e a056 293e
00000140: 71f1 ba3e 34cf c13e 3083 b43f 9853 803e
00000150: b0d0 c03e c728 9540 6069 9e3f 98e8 963f
00000160: c4ca 523f 21a2 483e 72b9 bc3e 42c6 833f
00000170: 9b2f af3f 238c 223f e3cd fb3e c84a f43e
00000180: f3dd 083f 409c cb3e ac3d 723f efa1 5140
00000190: 0474 683f 865f 803e 9301 3e3e 17f8 333f
000001a0: d82e b63e 8f0d 733e c7d2 d43e 1222 203f
000001b0: a9f6 a73f e155 f53e a302 683e bc48 373f
000001c0: 3a86 173f a2c7 4d3e 1dd5 243f 982b ab3e
000001d0: 3bac 3e3f 5963 843e 4471 523f a386 193f
000001e0: 4ac4 8a3f 96e6 843f addf aa3e 58dd 713f
000001f0: 9e83 2f3f 3b0a 473f 5264 4e3e baea 543e
00000200: 4079 903e a683 c93e f00c 253f 7f50 733e
00000210: 989e 643e c2e4 eb3e e114 863e c151 1940
00000220: 4016 233f c535 a53e fb20 3c3f 5da5 963e
00000230: 4046 873e 1818 6e3e 6bd0 383f 5724 c23e
00000240: 41c8 183f ec2e 293e ca37 3c3f d472 353f
00000250: 439f ea3e 3a4b 343e 4680 a83f 0ea0 863e
00000260: 65fb 6b3f 486c 9e3f a22e 893e 6e5f 1c3f
00000270: 8fde ec3e 1ca8 e43e 8472 0540 1793 9a3f
00000280: 831d a73f c6bf 6c3f 1a09 963e 39a2 eb3e
00000290: 36f7 223e 26dd 953e dd99 393f 3127 4b3f
000002a0: afc3 f73f ff95 083f 67e9 ee3e ef80 313f
000002b0: a32e e93e b7f2 8f3f f6b5 9f3f 3686 873f
000002c0: 8e2d d93e c570 4f3f 2eba 9b3f c111 c83f
000002d0: 6bd0 423f 7de4 803e 4fed 1c3f c932 433f
000002e0: 3c69 bd3f 47a3 903f f7c2 313f f5f0 213f
000002f0: cc1c bc3e d981 f43e be67 3940 1045 553e
00000300: 318d 553f 59b1 ee3e 9ade 5b3f b2b5 7f3f
00000310: 1780 1d3e 5f9b 593e 02ef d83e 3f80 ce3e
00000320: 90b7 243e 6144 183f 6d27 1d3e f329 093f
00000330: 001a 7c3f 9c62 463e 4a3d c23f 7eb8 153f
00000340: b6d9 c43f d609 963e b858 383e 682b 603f
00000350: d376 143f f06d 8f3f fa27 8d3e d6e5 6040
00000360: 66ab 313f 0d39 833e a0d6 cb3e b71e 8a3e
00000370: 4d08 383f f5ea f03e 9cb4 b83f afb9 653f
00000380: bbdc 0d3e 2d6b 203f 7459 5b3e ee6e 533f
00000390: ffc9 c93e 8874 4d3f 0a26 403f f7ed 823f
000003a0: 8d59 0c3f 0d28 cc3e 503f ee3e ab35 bf3e
000003b0: 851c 1c3f c5c1 d93e 9806 6d3f 48fc 353e
000003c0: 54a1 9e3e 76cf d43e 06a0 e83e d0c5 cf3f
000003d0: cd13 633e b1a8 db3e 6d9b b33e 1a6b b73f
000003e0: 0317 543f ac64 3e3e e2cb 133e 5bb7 8c3f
000003f0: a0d4 083f 614f dd3f 0cc6 c63e 9286 ea3f
1.6872464 0.1906189 0.25162318 0.32054397 0.43256238 0.51881164 0.2897824 0.3257032
0.19550431 1.7987474 0.2040982 0.36862868 0.22137067 1.5118103 0.42766765 0.6366038
0.9348611 1.2625093 3.3709958 0.2924903 0.8519507 0.870158 0.3811988 0.20295183
2.7340004 0.45886093 1.5111351 0.76590997 0.20364791 0.19124472 0.5965841 0.29712972
0.73885757 0.39048868 0.50112855 0.22889362 0.40442857 0.178353 0.5318481 0.24780507
0.32956228 0.17927766 0.6316572 0.85524976 0.44926953 1.0492305 0.52413666 0.39701542
0.56461996 0.3338564 1.3572307 0.37327185 0.716132 0.20466352 0.41698515 0.9599267
0.6486706 1.6540805 0.30182278 0.81740886 0.3767566 1.7471317 0.47770116 0.20963646
1.5761563 0.25945735 1.7561387 0.7294698 0.43290755 0.30371565 1.4889783 0.19161206
0.46508735 0.2137485 0.4188805 0.8945062 0.58947515 0.9219699 0.40574962 0.16536951
0.3651233 0.37853396 1.4102535 0.25063777 0.37659216 4.6612277 1.2375908 1.1789732
0.82340646 0.19593097 0.36860234 1.0294878 1.3686403 0.6349508 0.49180517 0.47713304
0.5346367 0.39767647 0.94625354 3.2755086 0.90802026 0.2507288 0.18555288 0.7030043
0.35582614 0.23735641 0.4156706 0.6255199 1.312215 0.47917083 0.22657256 0.7159536
0.5918919 0.20095685 0.64387685 0.33431697 0.7448155 0.25857046 0.8220408 0.59971064
1.0841153 1.0382869 0.33373776 0.9447837 0.68560207 0.77749985 0.20155457 0.20792666
0.28217506 0.39358252 0.64472866 0.23761176 0.22326124 0.46072966 0.26187804 2.3956149
0.63705826 0.32267585 0.73487824 0.29423037 0.26420784 0.23251379 0.7219302 0.3791835
0.59680563 0.16521806 0.7352263 0.7087834 0.45824632 0.17606822 1.3164146 0.26293987
0.9218047 1.2376795 0.2679339 0.61083114 0.4626355 0.44659507 2.0851145 1.2076138
1.3055881 0.92480123 0.2930382 0.46022204 0.15914616 0.29270285 0.725004 0.79356676
1.9356593 0.53353876 0.46662447 0.6933736 0.45543393 1.1245946 1.2477405 1.0587833
0.42417568 0.8103145 1.2166193 1.5630418 0.7609927 0.25174323 0.61299604 0.76249367
1.479774 1.1299828 0.6943812 0.63258296 0.3674072 0.47755316 2.896957 0.20827127
0.83418566 0.4661968 0.8588654 0.9988662 0.15380894 0.21250676 0.42369848 0.4033222
0.16085649 0.5947934 0.15347071 0.53579634 0.9847717 0.19373554 1.5174954 0.5848464
1.537894 0.2930438 0.18002594 0.8756623 0.5799381 1.1205425 0.27569562 3.514028
0.6940216 0.25629464 0.39812183 0.2697656 0.71887666 0.47054258 1.4430118 0.89736456
0.13853733 0.6266354 0.21420842 0.8259114 0.39411923 0.8025594 0.75058043 1.0228871
0.54824144 0.39874306 0.4653268 0.37345633 0.6098102 0.42530647 0.92588186 0.17772019
0.3098246 0.4156453 0.45434588 1.6232243 0.22175522 0.4290214 0.35079518 1.432956
0.82847613 0.18593091 0.14433244 1.0993456 0.5344944 1.728985 0.38822973 1.8322318

arith.constant11 f4 [256]
00000000: 6e5d 2dbe d5bc e4be 438a cfbe 2bc2 c9be
00000010: 919a e8be ec0b dcbe bb71 f4be 0a6f fcbe
00000020: 57ed f0be 6600 3ebe bf62 2cbf 3194 04bf
00000030: 46f0 0dbf 69e6 73be 4c94 d0be e254 9cbe
00000040: fb9b 9dbe 76f9 55be aa8c ffbd e73b 2bbf
00000050: d649 93be c80e 58be 34fd cabe b520 27bf
00000060: a207 2cbd 4438 e1be 21fc 19be 5455 afbe
00000070: 6728 0fbf 7e40 67bf 160a 8bbe 2366 c4be
00000080: 853f bebe f550 f6be 3194 e5be 03a3 1ebf
00000090: 3541 03bf c20a 3ebf 9e5d dcbe 3d49 abbe
000000a0: 307a 13bf 92f0 14bf c3cd 8bbe f5fe 89be
000000b0: 6d45 aabe f2d6 3cbe 7438 96be c861 01bf
000000c0: a2e8 7fbe 0f32 e6be 7bbc 62be ecf8 f3be
000000d0: 4b4e 99be 3f7a 1ebf f50b acbe f0c7 84be
000000e0: c806 a8be 6fc4 3fbe 9f68 1cbf 2279 1cbe
000000f0: 3a78 f6be d841 4abe c279 d0be a935 cebe
00000100: 1294 13be ee81 fcbe 4903 ccbd ce9e b2be
00000110: 6539 f8be db5b fabe 390e 09be 2100 05bf
00000120: 66cd f1be 5c0d dfbe f538 bebe ae82 8cbe
00000130: 5904 d8be 7661 94be a79c b3be 636e 0cbf
00000140: 4156 dfbe 5dcf b5be a723 29be 00db ecbe
00000150: 168c 15bf 5cd7 99bd 1886 3ebe 571a 88be
00000160: 2c15 95be f1f8 f0be d63a e6be 7e1a 4ebe
00000170: f9a3 6bbe 95a7 b2be 8179 c1be 1c05 a8be
00000180: 1b12 debe f0ee a1be 8c50 77be e5a6 f7bd
00000190: 81dc 9cbe 5a75 33bf af4c 38bf 95d5 96be
000001a0: ccdf cebe 3c5d 07bf abb7 07bf cc7a 8ebe
000001b0: a439 88be a5af e1be 2269 2dbf cad0 a7be
000001c0: 32d2 d4be b93c 4ebf e168 92be 3a9a ccbe
000001d0: 34d7 6bbe 25ee 16bf a21c 79be 28b8 d1be
000001e0: d973 81be 6fc9 7bbe 5d79 b2be 3238 57be
000001f0: b048 afbe 6912 58be 1973 f5be 6110 d2be
00000200: c22b 0abf 792a a0be 7506 a3be 029d ffbe
00000210: b69b 15bf 0d50 f6be f24a c7be 9794 dbbd
00000220: ca17 96be 242c 02bf f608 bcbe 7cad e4be
00000230: 7779 eabe 4622 66bf 5bd0 93be 842d 0cbf
00000240: c6cd a0be e157 42bf 5d7a c0be cd52 91be
00000250: a4c3 c4be 76c4 3dbf 9c9d 8ebe 5835 bfbe
00000260: 1065 afbe 5863 66be e97e 13bf 67dc a0be
00000270: 62ff f1be 9c92 a4be 37dc 15be be3e 6bbe
00000280: 64f0 2abe 4eb8 8abe e68d fcbe 5cea 1abf
00000290: 814e 44bf e6ea ebbe a6ab b4be 8220 6abe
000002a0: d96a 16be 79fe 9bbe a3bc cabe 9b7d 9abe
000002b0: cbd6 dfbe 018d 63be 179e 82be 81fc 91be
000002c0: cd74 f3be b272 9abe ce8d 19be efad 13be
000002d0: b4e6 a8be ba62 f9be f504 96be 1f53 94be
000002e0: 1411 a9bd fcfe 93be 44e6 8fbe 786b 83be
000002f0: 3470 24bf 1fc2 a0be c2ed e5bd ae9a 42bf
00000300: d094 97be fa93 a4be 9875 83be 54a3 4ebe
00000310: 10d3 1dbf d612 1cbf f8e6 f1be 7fb1 bebe
00000320: 57db 45bf 7384 8fbe 2acf e0be 5717 c1be
00000330: 4163 69be 658e 16bf a445 5cbe 66cb 84be
00000340: 75b7 3bbe eac0 e6be c871 09bf fe91 98be
00000350: b0cb a5be a1e2 80be 2246 14bf 4a61 d9bd
00000360: 6c36 3dbe 0bdf 50bf 17e8 cebe 8a71 4bbf
00000370: 3900 9abe 3045 febe d5cd 83be 4d67 8ebe
00000380: ccc4 41bf bed7 a2be 3e99 46bf c2a0 45be
00000390: fc04 fabe aedd 8bbe 2b4f a7be e00c 1ebe
000003a0: 3424 f5be 4181 dbbe c8c8 d2be 7f84 9cbe
000003b0: 7492 88be aad1 babe 4aab 87be 283f 53bf
000003c0: 6350 ddbe 0d09 c8be 3475 05bf 342d 23be
000003d0: 72cf 22bf 5595 0cbf 0b99 07bf f4b4 39be
000003e0: 3ad3 42be ccbb 01bf b95b 4dbf a0fa 51be
000003f0: ca31 d1be 6464 41be 6353 04bf 99df 18be
-0.16930172 -0.44675317 -0.40535173 -0.3940595 -0.45430425 -0.42977846 -0.4774302 -0.49303466
-0.47056076 -0.1855484 -0.67338175 -0.5178862 -0.55444753 -0.23818363 -0.40738142 -0.3053351
-0.30783066 -0.20895943 -0.124780014 -0.6688828 -0.2876727 -0.21099389 -0.39646304 -0.6528428
-0.041999467 -0.4398824 -0.15037586 -0.34244788 -0.55921024 -0.9033278 -0.27156132 -0.38359174
-0.37157837 -0.4810864 -0.44839624 -0.61967486 -0.51271373 -0.74235165 -0.43040174 -0.33454314
-0.5760832 -0.5817958 -0.2730542 -0.2695233 -0.33256093 -0.1844137 -0.29339945 -0.5053983
-0.24991086 -0.44960067 -0.22142212 -0.4765085 -0.29942545 -0.6190528 -0.33602872 -0.2593379
-0.32817674 -0.18727277 -0.6109714 -0.15280584 -0.481386 -0.1975168 -0.40717894 -0.40275314
-0.14411953 -0.49317878 -0.09961564 -0.34886783 -0.4848129 -0.48898205 -0.13384332 -0.5195332
-0.4722702 -0.4356488 -0.3715283 -0.2744345 -0.42190817 -0.28980607 -0.35080454 -0.54855937
-0.43620494 -0.35509768 -0.16517507 -0.46260834 -0.5841688 -0.0751178 -0.1860584 -0.26582596
-0.29117715 -0.47064927 -0.44966763 -0.20127293 -0.2301177 -0.3489348 -0.37788013 -0.32816398
-0.43373188 -0.31627607 -0.2415182 -0.120923795 -0.3063698 -0.7010094 -0.7199201 -0.29459825
-0.40405118 -0.5287664 -0.5301463 -0.27828062 -0.26606476 -0.4407932 -0.67738545 -0.3277648
-0.41566616 -0.80561405 -0.2859564 -0.39961416 -0.23031312 -0.5895713 -0.24327329 -0.40960813
-0.25283697 -0.2458856 -0.34858218 -0.2101753 -0.34235144 -0.21100773 -0.47939375 -0.4102812
-0.5397302 -0.31282404 -0.31840864 -0.49924475 -0.5844072 -0.4810795 -0.38924366 -0.10721701
-0.29315025 -0.50848603 -0.36725587 -0.44663608 -0.45795795 -0.8989605 -0.288699 -0.5475695
-0.31406993 -0.7591534 -0.37593356 -0.28383484 -0.38430512 -0.741279 -0.2785462 -0.37345386
-0.34256792 -0.22498834 -0.57615525 -0.31418154 -0.47265154 -0.32143104 -0.14634787 -0.22973153
-0.16693264 -0.27093738 -0.4932701 -0.60513854 -0.7668229 -0.4607765 -0.35287207 -0.22863963
-0.14689197 -0.30467585 -0.39597043 -0.30173954 -0.43718562 -0.22221757 -0.25511238 -0.28512958
-0.4755005 -0.3016563 -0.149955 -0.14421819 -0.32988513 -0.48708135 -0.29300657 -0.28969666
-0.082552105 -0.28905475 -0.28105366 -0.2566793 -0.6423371 -0.31398103 -0.11226989 -0.7601727
-0.29605722 -0.32144147 -0.25675654 -0.20179492 -0.6165018 -0.6096624 -0.47246528 -0.37244794
-0.7728781 -0.28030738 -0.43908054 -0.3771312 -0.22791769 -0.58811027 -0.21510941 -0.2593643
-0.18331702 -0.45069057 -0.5368924 -0.29798883 -0.32381964 -0.25172904 -0.57919514 -0.106142595
-0.18477792 -0.81590337 -0.40411445 -0.7947012 -0.30078295 -0.4966216 -0.25742975 -0.27813187
-0.75690913 -0.31805223 -0.7757758 -0.19299605 -0.48831928 -0.27317566 -0.32677588 -0.15434599
-0.47879183 -0.4287205 -0.4116881 -0.30569836 -0.26674235 -0.36488086 -0.2649787 -0.82518244
-0.43225393 -0.39069405 -0.5213196 -0.15935212 -0.63597786 -0.5491536 -0.529679 -0.18135434
-0.19025889 -0.5067718 -0.8021808 -0.20505762 -0.408583 -0.18885952 -0.5168974 -0.14929046

arith.constant12 f4 [3, 128]
00000000: 534e 81bd 3c53 12be 7d71 9cbc 81b3 cc3d
00000010: 96e6 98bd 9273 153e b474 0c3c 86c7 d03d
00000020: a94d e6bd de34 193e af20 ca3d 8847 a7bc
00000030: 103a 093e fe15 32be db97 053e c41d 84be
00000040: 5150 353d 85fd 43be 5153 4b3e fdf6 08be
00000050: 4326 dbbc 14d3 c1bd 76ee 0d3c 1bc7 1b3e
00000060: 7c06 123d ab80 893d 0fa3 023e 0af8 303e
00000070: e8c8 31be 6ac7 543e 2003 b03c ab60 5c3d
00000080: c58f 823d 61b6 023e 9595 a1be ea95 64bd
00000090: f891 f6bd fe2f efbd f023 39be 1ece e5bd
000000a0: fcf9 6cbe 52ea 883d e84b e93d a574 a93d
000000b0: c1db a7bc c02f fd3d d576 aa3d 4055 8b3d
000000c0: 432a 35be 8997 44bc 764b b2bc 45a0 573b
000000d0: 4e41 4cbc f864 5bbe 0d6d f1bc eaac 58be
000000e0: a693 113e 6fed 3f3e 9452 1abd dccf 55bd
000000f0: c02b 03be 05df 07be ca46 10be e7d6 f8bd
00000100: ef19 e03d 6b63 43be ef50 b0bd 7cc4 a33d
00000110: 3ea7 85be 10a9 503e 1269 bc3c c260 52be
00000120: 0a01 63be 9012 d63d 920d 0f3d e127 0d3e
00000130: 4424 6fbe 63fd a7bd ec85 05be ecad 92bd
00000140: f980 81bd b3a2 133e 84f1 b7bd e1d1 913d
00000150: 3a72 c3bd 0952 293d e1da 273e b43e a13d
00000160: d29b 023e ef45 e7bd 70cc 57be 0762 2ebe
00000170: 7874 173e f893 81be d1ab 153e cb77 1cbe
00000180: cc5d 463e 68a0 fc3c 9a4b 99be 91f1 d03d
00000190: f931 f73d b273 2b3e a9b4 8abd 1a8f 663e
000001a0: 7571 62bd b8f4 40be 3349 30bd eeea 0f3b
000001b0: 756e 4c3e f3a7 24be a685 253d 2548 3f3e
000001c0: 319c 4b3e e948 753d 8cb9 70be 9f0a d5bd
000001d0: 56b0 163e 2b51 643e 6cd1 19bd bfad 043d
000001e0: 0421 303d efa8 9f3d b0a6 5ebe 2aa9 5e3e
000001f0: dab8 f0bd c5c0 113e e2cc 95bc ebf9 71be
00000200: 4f1b 663e 5199 2dbd 96b8 0dbe e63d 80be
00000210: 3af8 63be 347c 16be 7aef 0abe 3a0b 0cbe
00000220: c758 ae3d cfc3 78bd 052b 73be 33c1 663d
00000230: cbdb a8bd e8a9 0c3e 3f8e 91bd e187 bd3d
00000240: 7888 2ebe c403 0f3e 346e 22be 232a 29be
00000250: 3e3f 183e 911f b53d 3c7b 1d3e 5711 65be
00000260: bc84 ebbc cd2c 26be 8edd 61be 8c86 b7be
00000270: 0291 77bc 1437 373d e265 e83d 9153 d9bd
00000280: 8a3c 443e 6649 c7bd 050b 223c d3e0 4c3c
00000290: fe03 323e b0bf 4cbc d3d0 293e c80a 003e
000002a0: e852 f03d dbf5 4cbe 93fa 60be 007f 7abe
000002b0: 8b43 2f3c a56d a6be 75d9 7bbe b489 8abe
000002c0: 2986 d43d 3def 36be e947 a3be 1fd7 f0bd
000002d0: 7d6a 97be 8654 e53d 6b07 8ebd 5ca8 a63d
000002e0: 1578 e2bd 353e 493c 96e9 30be bfcd e8bd
000002f0: 15ea 083e 99b6 bdbd b744 0d3e c153 5d3d
00000300: 737a 3cbe a438 163e abe4 173e c71f 9e3d
00000310: 2e88 fb3d 2645 afbd 6c67 9ebe e141 42be
00000320: 700f f9b7 2c69 20be e9f3 28be 953e 8ebe
00000330: 0ec8 fa3d 8826 8dbc 2177 903c 0870 853d
00000340: a197 9ebd 5dba 44bd d059 333e 939e 163d
00000350: 0cd6 8abe b1ee 793d a44b b83d 5424 b0be
00000360: 2ca7 f23d e9ea 913c 7aa2 fb3d 2886 aebd
00000370: 31b2 33bd eb51 2abc cf0d 9dbe 8fc2 9dbe
00000380: 5e78 923d 894f 1abe 786f 68bd bcba 4cbe
00000390: 91d3 03be 1ea7 98be 5927 5abd 0f89 9fbd
000003a0: 7acb 1f3b 20fa 503e a7c7 13bd 20f3 5e3e
000003b0: 5a96 f83d b0e3 2ebd eea6 97be acad aabd
000003c0: bcdc d4bd f91f 14be 117f df3d 71c5 c73d
000003d0: f35d b2bd 3e9f cfbd b026 133e 8045 533d
000003e0: 2ac7 edbd 0038 08be 1cf8 713d a2e3 163d
000003f0: ec6c 05be 9251 67be 2a2c 3cbe eeef 1e3e
-0.06313767 -0.14289564 -0.019097084 0.09995175 -0.07465856 0.14594868 0.008572746 0.10194306
-0.11245281 0.14961573 0.09869515 -0.020419851 0.13401055 -0.17391202 0.1304621 -0.2580396
0.04426605 -0.19139679 0.19856001 -0.13375469 -0.026751643 -0.09464088 0.008662811 0.15212671
0.035650715 0.067139946 0.12757514 0.1728212 -0.17361796 0.20779195 0.021485865 0.053803127
0.06375078 0.12764885 -0.31559435 -0.05580703 -0.1203956 -0.11679076 -0.18080115 -0.11220954
-0.23142236 0.06685318 0.11391431 0.08274201 -0.020490529 0.12362623 0.08323447 0.068033695
-0.17691903 -0.011999019 -0.021764498 0.0032901925 -0.012466742 -0.21425235 -0.029470945 -0.21159711
0.1421648 0.18742917 -0.03767641 -0.052200183 -0.12809658 -0.13268669 -0.14089504 -0.12150364
0.109424464 -0.19080894 -0.08609187 0.07996461 -0.26104158 0.20376992 0.02299932 -0.20544723
-0.22168365 0.10452759 0.03492505 0.13784744 -0.23353678 -0.082026266 -0.13039368 -0.07162079
-0.06323428 0.14417534 -0.08981612 0.07120109 -0.09543271 0.041338 0.1639209 0.07873288
0.12754753 -0.11292636 -0.2107408 -0.17029582 0.14790523 -0.25308204 0.14616324 -0.15280072
0.19371718 0.030838206 -0.29940492 0.10202325 0.120700784 0.16743353 -0.067727394 0.22515526
-0.055283982 -0.18843353 -0.04303856 0.0021960097 0.19964011 -0.16079693 0.04041066 0.18679865
0.19883801 0.059883986 -0.2350828 -0.104024164 0.14715704 0.22296588 -0.037553236 0.03239226
0.043000236 0.077958934 -0.21743274 0.21744218 -0.11754008 0.14233692 -0.018286172 -0.23630492
0.22471355 -0.042382542 -0.13839945 -0.25047225 -0.2226266 -0.14695817 -0.13567916 -0.13676158
0.08513027 -0.060733613 -0.2374688 0.056336593 -0.08245047 0.13736689 -0.071072094 0.092544325
-0.17044246 0.1396628 -0.15862352 -0.1651998 0.14867875 0.088439114 0.15379041 -0.22369896
-0.028749816 -0.16228028 -0.22057173 -0.3584484 -0.015110256 0.04473026 0.113475576 -0.10611642
0.19163719 -0.097307965 0.009890323 0.012504774 0.17384335 -0.012496874 0.16583566 0.12504113
0.11734563 -0.20015661 -0.21970586 -0.24462509 0.010697256 -0.32505527 -0.24594672 -0.27058184
0.103771515 -0.178647 -0.318908 -0.11759781 -0.29573432 0.11197762 -0.069350086 0.08137581
-0.1105806 0.012282898 -0.17276606 -0.11367368 0.13370545 -0.09263343 0.13795744 0.054034952
-0.18406086 0.14670044 0.14833324 0.07720905 0.122818336 -0.08558111 -0.3093828 -0.18970443
-2.9690302e-05 -0.1566512 -0.16499294 -0.2778212 0.12245189 -0.017230287 0.01763493 0.06515509
-0.07743765 -0.048029292 0.1751473 0.036772322 -0.2711643 0.06101865 0.08998802 -0.34402716
0.11848292 0.01781221 0.12286849 -0.08521682 -0.04387111 -0.010395507 -0.30674598 -0.308125
0.071518645 -0.15069403 -0.05674693 -0.19993109 -0.12873675 -0.29815 -0.05326018 -0.07789814
0.0024382756 0.20407915 -0.036079075 0.21772432 0.12138052 -0.04269761 -0.29619545 -0.083339065
-0.10393664 -0.14465322 0.10912908 0.09754456 -0.08709326 -0.10137795 0.14370227 0.051579952
-0.11610253 -0.13302612 0.059074506 0.03683818 -0.13029832 -0.2258971 -0.18376222 0.15521213

arith.constant13 f4 [64, 1, 7, 1]
00000000: 34ad 873d 8483 0b3d b6b8 60bd 280e d13d
00000010: 7d6b 4bbd ba3a ec3b 9d39 14be ada3 243d
00000020: 4469 323c 11e7 f1bc 1e66 10be 52fc d4bd
00000030: 58e9 463d 5b7c fa3c 12b0 0bbc 8167 bf3d
00000040: 998e 9dbd 3cc0 d3bd 85ea fe3a 32f4 66bd
00000050: 39b1 f93d 4257 ebbb a827 3abd 3c8a ad3c
00000060: 4a20 d53d 193d c6bd ee62 3bbc 930d f53d
00000070: d653 483d f74c 973c e905 1e3d 0d2a 053e
00000080: f334 2cbc ac14 953d 0667 113e b176 213e
00000090: c770 193e 3d93 1a3e e819 d33c 1fb4 0fbd
000000a0: 18c6 853d 8450 78bd 6f14 03be dbd8 c0bd
000000b0: 85ee 243c 2207 093e d2bf ad3d 9824 b7bd
000000c0: e411 b2bd 7b4d 15be 2e52 b93c 8eb7 55bc
000000d0: bad3 e23c 9010 123d 1476 bdbc 4b84 bdbd
000000e0: cabf 753d d3cf 173e ec1d e4bc 7118 25bd
000000f0: 74c8 58bc 832c 0bbe 3b1c b4bd d5e5 4cbd
00000100: 1dbf b03d 3025 ae3d e27c 013e 9702 b2bb
00000110: 54ec 433d 6286 003e b094 9fbd b411 16be
00000120: 7e0e a23d 97a4 0d3d ac05 583c af67 3d3b
00000130: a47d fa3d 5450 123e 8cc2 5a3d 6de9 983d
00000140: 1d77 1bbd c016 aebd 65e0 64bd 5704 cdbd
00000150: c2b0 a53d f79b 943d d2fd 283d 2bb5 ab3d
00000160: e86c 92bd 90e1 fdbc 7a8f 4ebd a13b 133d
00000170: 0712 1f3e 3668 9e3c 6832 1a3d 2062 263d
00000180: 948e 64bc dc38 6d3d 3553 003e 6bfc 0ebd
00000190: bd51 0cbd ff98 963c d8e6 f33b 0293 da3c
000001a0: 4c1a 113d 08c1 89bd 0ee3 4fbc 4fd9 07be
000001b0: def3 0bbd ef6a 803b 46e7 d03b e7d8 c13c
000001c0: c55e c63c 9f54 de3d 93d0 ad3d df22 3ebc
000001d0: 70b1 0dbd 5b96 59bd 7c9c f6bd e0b6 cf39
000001e0: 2d5b 7dbd d8cb 0fbe c02e 903d cedf fa3d
000001f0: 05a4 073e 8001 00bd 0fde 1dbe 72d4 723c
00000200: 6d3f 75bd 221f 013c 64f0 94bd fc70 da3d
00000210: 0660 c23d cdb2 ab3d 44e9 813c 3a22 0abe
00000220: f1e8 3f3d 5d8b 9dbd 1c32 3d3d b2d4 8ebc
00000230: 0d10 c23c 08d2 17be 7214 e5bc aae6 abbd
00000240: a64e 363d 9723 8a3d cf45 163e eaa2 0fbc
00000250: eaa1 77bc 8508 cbbd 8a73 7b3c caaa b0bc
00000260: 1ba9 723d 9f2f 493d 7a76 e33b 8dc0 c33d
00000270: 6516 3bbd d449 8f3c 1396 bdbd 2d0c 8c3d
00000280: 05aa c83d 2bf5 20bd 4387 07be f541 ac3c
00000290: 3613 a9bc 130f 263b 31f0 dc3d 762c 203e
000002a0: 6649 7c3d 2876 d03d b11a 98bd c5ab 913d
000002b0: aeba 493d 5da0 143e f8e9 213e daaf a1bd
000002c0: b6fe 02bc b6fb 8cbd 6acf c4bc 32e8 793d
000002d0: bc3f 7dbd 1a27 0fbe b851 223e b75f 863d
000002e0: ff30 60bd 7ae6 833d 67be aebd 3129 06be
000002f0: 1255 dcbc 212e 2b3d 2f1a 6b3d 8200 a33d
00000300: 6dff d03d 8a48 d73d e70f ea3d 0946 6fbc
00000310: 5576 f7bd 89e4 eabd 8b36 8b3d 7edc 22bd
00000320: 21c0 8d3d b837 fd3d 9155 743d 5470 b6bd
00000330: 205b 083e 9670 543d 9c4a 18bd 3be9 663d
00000340: 2503 70bd 597d 44bd 1f1f d93d df82 7cbd
00000350: 2b8f 51bd d5dc c3bd 6987 f93c 2bb3 0abc
00000360: 22c9 b33d d2e3 133d 7b92 f9bd 2f1c edbd
00000370: 93ac 5dbc f56b 45bd 6ba1 0d3e 237d ff3d
00000380: 1f59 54bd a6e5 f9bd a19e 5b3d 499b d2bd
00000390: fa01 a53d 8167 8f3d db18 063e afab 42bd
000003a0: 7878 ab3d f0ea fc3d 0b7b 8abd 9766 9ebd
000003b0: 7082 c9bd f611 cfbc 8d48 31be 4acd 113c
000003c0: 3802 1eba dad6 0c3d 70bf 983d 75b7 2ebc
000003d0: bd9f f93d c4d6 fbbd 8f0b cebd 21c3 9d3b
000003e0: 80cf 073d 27b2 da3d ef37 b6bc bb67 083e
000003f0: 2c62 183d c122 93bd a856 04be 0781 40bd
0.06624833 0.03406097 -0.054863654 0.10207778 -0.049663056 0.007209149 -0.14475103 0.040195156
0.010889355 -0.029529126 -0.14101455 -0.10399689 0.048562378 0.030576875 -0.008525865 0.09345914
-0.07693214 -0.103394 0.0019448554 -0.056385227 0.12192006 -0.007182033 -0.045447975 0.02118408
0.10406549 -0.09679622 -0.011437161 0.1196548 0.048908077 0.018469317 0.038579855 0.13004322
-0.010510671 0.072793335 0.14199457 0.15767933 0.14984427 0.1509523 0.025769189 -0.035083886
0.06531924 -0.06062366 -0.12800764 -0.09416362 0.010066633 0.13381627 0.084838524 -0.089425266
-0.086948186 -0.14580338 0.022622194 -0.013044251 0.02768885 0.035660326 -0.023127593 -0.092537485
0.059997357 0.14825372 -0.0278463 -0.040306512 -0.0132313855 -0.13591199 -0.08794447 -0.050023872
0.08630202 0.08503187 0.12645295 -0.0054324376 0.047832802 0.12551263 -0.07792032 -0.1465519
0.079129204 0.034580793 0.013184946 0.0028900912 0.12230995 0.14288455 0.05340819 0.074663974
-0.037955392 -0.08500433 -0.05587806 -0.100105934 0.080903545 0.072563104 0.041257687 0.083841644
-0.071496785 -0.030991346 -0.0504298 0.03594554 0.1553422 0.019336801 0.037645727 0.040620923
-0.013950009 0.057915553 0.12531741 -0.034908693 -0.03425764 0.018383501 0.00744329 0.026681427
0.03542547 -0.06726271 -0.012688411 -0.1326649 -0.034168117 0.0039189975 0.006375226 0.023662997
0.024215112 0.10855984 0.08487048 -0.011604994 -0.034593046 -0.053121906 -0.12041566 0.0003961837
-0.06185453 -0.14042604 0.07040167 0.122497186 0.13246162 -0.03125143 -0.1541674 0.014821159
-0.05987494 0.007880958 -0.072724134 0.10666081 0.09490971 0.08383713 0.0158583 -0.13489619
0.04685301 -0.07692597 0.046190366 -0.017435405 0.023689294 -0.14826214 -0.02796385 -0.08393605
0.0445086 0.067450695 0.14675067 -0.008766869 -0.015114287 -0.09913734 0.015347371 -0.021565814
0.059243303 0.04911768 0.0069416137 0.095582105 -0.045675654 0.017491259 -0.0925714 0.0683826
0.09798054 -0.03929631 -0.13235192 0.021027545 -0.020639043 0.0025338575 0.107880004 0.1564196
0.061593436 0.101787865 -0.07426966 0.071128406 0.049250297 0.14514299 0.15811908 -0.07894869
-0.007995298 -0.068839476 -0.024024684 0.061012454 -0.06182836 -0.1397976 0.15851486 0.06561225
-0.054734226 0.06440444 -0.0853241 -0.13101651 -0.026896033 0.04179204 0.057398017 0.07959081
0.102049686 0.105118826 0.114288144 -0.0146041 -0.12083117 -0.11469371 0.067975126 -0.03976106
0.06921411 0.12364143 0.059651915 -0.08908144 0.13316011 0.051865183 -0.037180528 0.05637477
-0.05859675 -0.047971103 0.10601639 -0.061648246 -0.051161926 -0.09563605 0.030460076 -0.008465569
0.087785974 0.03610594 -0.12186142 -0.11577641 -0.013529914 -0.04819866 0.13831107 0.1247504
-0.051842805 -0.12202005 0.053618077 -0.102835245 0.080570176 0.07002164 0.13095419 -0.04752701
0.08372587 0.12349498 -0.0676175 -0.07734411 -0.09839332 -0.02527712 -0.17312832 0.008899042
-0.00060275523 0.034384586 0.07458389 -0.010663857 0.12188671 -0.12296823 -0.100607984 0.004814521
0.03315687 0.10678511 -0.022243468 0.1332082 0.037203 -0.07184363 -0.12923682 -0.04699805
